…
t = \"hello world\"\n\ntokenizer.encode_plus(\n    text,\n    truncation=True,\n    add_special_tokens=True,\n    max_length=10,\n    padding='max_length'\n    )\n```", "```py\n{\n  'input_ids': [0, 42891, 232, 2, 1, 1, 1, 1, 1, 1], \n  'attention_mask': [1, 1, 1, 1, 0, 0, 0, 0, 0, 0]\n}\n```", "```py\nfrom transformers import AutoModel\n\nrobertaBase = AutoModel.from_pretrained(\"roberta-base\")\n```", "```py\nimport pytorch.nn as torch\n\nisinstance(robertaBase, nn.Module)\n>> True\n```", "```py\nprint(robertaBase)\n\n>> RobertaModel(\n  (embeddings): RobertaEmbeddings(\n    (word_embeddings): Embedding(50265, 768, padding_idx=1)\n    (position_embeddings): Embedding(514, 768, padding_idx=1)\n    (token_type_embeddings): Embedding(1, 768)\n    (LayerNorm): LayerNorm((768,), eps=1e-05, elementwise_affine=True)\n    (dropout): Dropout(p=0.1, inplace=False)\n  )\n  (encoder): RobertaEncoder(\n    (layer): ModuleList(\n      (0-11): 12 x RobertaLayer(\n        (attention): RobertaAttention(\n          (self): RobertaSelfAttention(\n            (query): Linear(in_features=768, out_features=768, bias=True)\n            (key): Linear(in_features=768, out_features=768, bias=True)\n            (value): Linear(in_features=768, out_features=768, bias=True)\n            (dropout): Dropout(p=0.1, inplace=False)\n          )\n          (output): RobertaSelfOutput(\n            (dense): Linear(in_features=768, out_features=768, bias=True)\n            (LayerNorm): LayerNorm((768,), eps=1e-05, elementwise_affine=True)\n            (dropout): Dropout(p=0.1, inplace=False)\n          )\n        )\n        (intermediate): RobertaIntermediate(\n          (dense): Linear(in_features=768, out_features=3072, bias=True)\n          (intermediate_act_fn): GELUActivation()\n        )\n        (output): RobertaOutput(\n          (dense): Linear(in_features=3072, out_features=768, bias=True)\n          (LayerNorm): LayerNorm((768,), eps=1e-05, elementwise_affine=True)\n          (dropout): Dropout(p=0.1, inplace=False)\n        )\n      )\n    )\n  )\n  (pooler): RobertaPooler(\n    (dense): Linear(in_features=768, out_features=768, bias=True)\n    (activation): Tanh()\n  )\n)\n```", "```py\nmodel_name = \"roberta-base\"\nlast_hidden_layer_size = 768\nfinal_node_size = 1\n\nclass ToxicRankModel(nn.Module):\n\n    def __init__(self, model_name, last_hidden_layer_size):\n        super(ToxicRankModel, self).__init__()\n        self.robertaBase = AutoModel.from_pretrained(model_name)\n        se
…
