["```py\nfrom transformers import ViTForImageClassification\nimport torch\nimport numpy as np\n\nmodel = ViTForImageClassification.from_pretrained(\"google/vit-base-patch16-224\")\n```", "```py\nViTForImageClassification(\n  (vit): ViTModel(\n    (embeddings): ViTEmbeddings(\n      (patch_embeddings): PatchEmbeddings(\n        (projection): Conv2d(3, 768, kernel_size=(16, 16), stride=(16, 16))\n      )\n      (dropout): Dropout(p=0.0, inplace=False)\n    )\n    (encoder): ViTEncoder(\n      (layer): ModuleList(\n        (0): ViTLayer(\n          (attention): ViTAttention(\n            (attention): ViTSelfAttention(\n              (query): Linear(in_features=768, out_features=768, bias=True)\n              (key): Linear(in_features=768, out_features=768, bias=True)\n              (value): Linear(in_features=768, out_features=768, bias=True)\n              (dropout): Dropout(p=0.0, inplace=False)\n            )\n            (output): ViTSelfOutput(\n              (dense): Linear(in_features=768, out_features=768, bias=True)\n              (dropout): Dropout(p=0.0, inplace=False)\n            )\n          )\n          (intermediate): ViTIntermediate(\n            (dense): Linear(in_features=768, out_features=3072, bias=True)\n          )\n          (output): ViTOutput(\n            (dense): Linear(in_features=3072, out_features=768, bias=True)\n            (dropout): Dropout(p=0.0, inplace=False)\n          )\n          (layernorm_before): LayerNorm((768,), eps=1e-12, elementwise_affine=True)\n          (layernorm_after): LayerNorm((768,), eps=1e-12, elementwise_affine=True)\n        )\n\n        .......\n\n        (11): ViTLayer(\n          (attention): ViTAttention(\n            (attention): ViTSelfAttention(\n              (query): Linear(in_features=768, out_features=768, bias=True)\n              (key): Linear(in_features=768, out_features=768, bias=True)\n              (value): Linear(in_features=768, out_features=768, bias=True)\n              (dropout): Dropout(p=0.0, inplace=False)\n            )\n            (output): ViTSelfOutput(\n              (dense): Linear(in_features=768, out_features=768, bias=True)\n              (dropout): Dropout(p=0.0, inplace=False)\n            )\n          )\n          (intermediate): ViTIntermediate(\n            (dense): Linear(in_features=768, out_features=3072, bias=True)\n          )\n          (output): ViTOutput(\n            (dense): Linear(in_features=3072, out_features=768, bias=True)\n            (dropout): Dropout(p=0.0, inplace=False)\n          )\n          (layernorm_before): LayerNorm((768,), eps=1e-12, elementwise_affine=True)\n          (layernorm_after): LayerNorm((768,), eps=1e-12, elementwise_affine=True)\n        )\n      )\n    )\n    (layernorm): LayerNorm((768,), eps=1e-12, elementwise_affine=True)\n  )\n  (classifier): Linear(in_features=768, out_features=1000, bias=True)\n)\n```", "```py\nproj = model.vit.embeddings.patch_embeddings.projection\ntorch.allclose(torch.sum(image[0, :, 0:16, 0:16] * w[0]) + b[0],\n               proj(image)[0][0][0, 0], atol=1e-6)\n# True\n\ntorch.allclose(torch.sum(image[0, :, 16:32, 0:16] * w[0]) + b[0],\n                 proj(image)[0][0][1, 0], atol=1e-6)\n\n# True\n```", "```py\nembed
…
beddings = embeddings + model.vit.embeddings.position_embeddings\n```", "```py\n# compute the embedding\nembeddings = model.vit.embeddings.patch_embeddings.projection(image)\nembeddings = embeddings.flatten(2).transpose(1, 2)\n# append [CLS] token\ncls_token = model.vit.embeddings.cls_token\nembeddings = torch.cat((cls_tokens, embeddings), dim=1)\n# positional embedding\nembeddings = embeddings + self.position_embeddings\n# droput\nembeddings = model.vit.embeddings.dropout(embeddings) \n```", "```py\n(0): ViTLayer(\n  (attention): ViTAttention(\n    (attention): ViTSelfAttention(\n      (query): Linear(in_features=768, out_features=768, bias=True)\n      (key): Linear(in_features=768, out_features=768, bias=True)\n      (value): Linear(in_features=768, out_features=768, bias=True)\n      (dropout): Dropout(p=0.0, inplace=False)\n    )\n    (output): ViTSelfOutput(\n      (dense): Linear(in_features=768, out_features=768, bias=True)\n      (dropout): Dropout(p=0.0, inplace=False)\n    )\n  )\n  (intermediate): ViTIntermediate(\n    (dense): Linear(in_features=768, out_features=3072, bias=True)\n  )\n  (output): ViTOutput(\n    (dense): Linear(in_features=3072, out_features=768, bias=True)\n    (dropout): Dropout(p=0.0, inplace=False)\n  )\n  (layernorm_before): LayerNorm((768,), eps=1e-12, elementwise_affine=True)\n  (layernorm_after): LayerNorm((768,), eps=1e-12, elementwise_affine=True)\n)\n```", "```py\nimport math \nimport torch.nn as nn\n\ntorch.manual_seed(0)\n\nhidden_size = 768\nnum_attention_heads = 12\nattention_head_size = hidden_size // num_attention_heads # 64\n\nhidden_states = embeddings\n\n# apply LayerNorm to the embeddings\nhidden_states = model.vit.encoder.layer[0].layernorm_before(hidden_states)\n\n# take first layer o
…
