…
odel.add(Input(shape=(train_x.shape[1],)))\nmodel.add(Dense(224, activation='sigmoid'))\nmodel.add(Dense(224, activation='sigmoid'))\nmodel.add(Dense(224, activation='sigmoid'))\nmodel.add(Dense(224, activation='sigmoid'))\nmodel.add(Dense(224, activation='sigmoid'))\nmodel.add(Dense(1, activation='relu'))\nprint(model.summary())\n```", "```py\nModel: \"sequential\"\n_________________________________________________________________\nLayer (type)                 Output Shape              Param #   \n=================================================================\ndense (Dense)                (None, 224)               175840    \n_________________________________________________________________\ndense_1 (Dense)              (None, 224)               50400     \n_________________________________________________________________\ndense_2 (Dense)              (None, 224)               50400     \n_________________________________________________________________\ndense_3 (Dense)              (None, 224)               50400     \n_________________________________________________________________\ndense_4 (Dense)              (None, 224)               50400     \n_________________________________________________________________\ndense_5 (Dense)              (None, 1)                 225       \n=================================================================\nTotal params: 377,665\nTrainable params: 377,665\nNon-trainable params: 0\n_________________________________________________________________\n```", "```py\nkeras.layers.Dropout(rate, **kwargs)\n```", "```py\n# Create model:\nmodel = Sequential()\nmodel.add(Input(shape=(train_x.shape[1],)))\nmodel.add(Dense(224, activation='relu'))\nmodel.add(Dropout(rate=0.4))\nmodel.add(Dense(224, activation='relu'))\nmodel.add(Dropout(rate=0.4))\nmodel.add(Dense(10, activation='softmax'))\nprint(model.summary())\n```", "```py\nModel: \"sequential\"\n_________________________________________________________________\nLayer (type)                 Output Shape              Param #   \n=================================================================\ndense (Dense)                (None, 224)               175840    \n_________________________________________________________________\ndropout (Dropout)            (None, 224)               0         \n_________________________________________________________________\ndense_1 (Dense)              (None, 224)               50400     \n_________________________________________________________________\ndropout_1 (Dropout)          (None, 224)               0         \n_________________________________________________________________\ndense_2 (Dense)              (None, 10)                2250      \n=================================================================\nTotal params: 228,490\nTrainable params: 228,490\nNon-trainable params: 0\n_________________________________________________________________\n```", "```py\nkeras.layers.Conv2D(\n    filters,\n    kernel_size,\n    **kwargs\n)\n```", "```py\nkeras.layers.MaxPooling2D(\n    pool_size=(2, 2), **kwargs\n)\n```", "```py\n# Creat
…
\nmodel.add(Input(shape=(28, 28, 1)))\nmodel.add(Conv2D(32, kernel_size=3, activation=\"relu\"))\nmodel.add(MaxPooling2D(pool_size=2))\nmodel.add(Conv2D(64, kernel_size=3, activation=\"relu\"))\nmodel.add(MaxPooling2D(pool_size=2))\nmodel.add(Flatten())\nmodel.add(Dropout(0.5))\nmodel.add(Dense(n_labels, activation=\"softmax\"))\nprint(model.summary())\n```", "```py\n_________________________________________________________________\nLayer (type)                 Output Shape              Param #   \n=================================================================\nconv2d (Conv2D)              (None, 26, 26, 32)        320       \n_________________________________________________________________\nmax_pooling2d (MaxPooling2D) (None, 13, 13, 32)        0         \n_________________________________________________________________\nconv2d_1 (Conv2D)            (None, 11, 11, 64)        18496     \n_________________________________________________________________\nmax_pooling2d_1 (MaxPooling2 (None, 5, 5, 64)          0         \n_________________________________________________________________\nflatten (Flatten)            (None, 1600)              0         \n_________________________________________________________________\ndropout (Dropout)            (None, 1600)              0         \n_________________________________________________________________\ndense (Dense)                (None, 10)                16010     \n=================================================================\nTotal params: 34,826\nTrainable params: 34,826\nNon-trainable params: 0\n_________________________________________________________________\n```", "```py\n# Train:\nloss = 'mae'\nmetric = 'mse'\nepochs = 200\nmodel.compile(loss=loss, optimizer='adam', metrics=[metric])\nhistory = model.fit(x_train, y_train, epochs=epochs, bat
…
