…
fitter)\n            print(\"Loaded the fitted model and ready for prediction.\")\n\n            tracker_df = pd.read_csv(filepath_or_buffer=self.filepath_tracker)\n\n        print()\n        plot_model_performance(tracker_df=tracker_df)\n\n        return model\n```", "```py\nModel: \"Chess_Model\"\n_________________________________________________________________\n Layer (type)                Output Shape              Param #   \n=================================================================\n Input (InputLayer)          [(64, 25, 25, 3)]         0         \n\n Conv2D_1 (Conv2D)           (64, 21, 21, 32)          2432      \n\n Conv2D_2 (Conv2D)           (64, 19, 19, 62)          17918     \n\n Flatten (Flatten)           (64, 22382)               0         \n\n Dense (Dense)               (64, 42)                  940086    \n\n Output (Dense)              (64, 13)                  559       \n\n=================================================================\nTotal params: 960,995\nTrainable params: 960,995\nNon-trainable params: 0\n_________________________________________________________________\n```", "```py\nfrom chess_positions import IllegalPosition\nfrom chess_positions import Check\nfrom glob import glob\nfrom skimage.util.shape import view_as_blocks\n\nimport cv2 as 
…
