…
ort AutoModelForCausalLM, AutoTokenizer\n\nmodel_name = \"facebook/opt-350m\"\n\nmodel = AutoModelForCausalLM.from_pretrained(model_name).to(\"cuda\")\ntokenizer = AutoTokenizer.from_pretrained(model_name)\n\nprompt = \"Hello, I'm am conscious and\"\ninput_ids = tokenizer(prompt, return_tensors=\"pt\").to(\"cuda\")\n\nsample = model.generate(**input_ids, max_length=64)\nprint(tokenizer.decode(sample[0]))\n# Hello, I'm am conscious and I'm a bit of a noob. I'm looking for a good place to start.\n```", "```py\nOPTForCausalLM(\n  (model): OPTModel(\n    (decoder): OPTDecoder(\n      (embed_tokens): Embedding(50272, 512, padding_idx=1)\n      (embed_positions): OPTLearnedPositionalEmbedding(2050, 1024)\n      (project_out): Linear(in_features=1024, out_features=512, bias=False)\n      (project_in): Linear(in_features=512, out_features=1024, bias=False)\n      (layers): ModuleList(\n        (0-23): 24 x OPTDecoderLayer(\n          (self_attn): OPTAttention(\n            (k_proj): Linear(in_features=1024, out_features=1024, bias=True)\n            (v_proj): Linear(in_features=1024, out_features=1024, bias=True)\n            (q_proj): Linear(in_features=1024, out_features=1024, bias=True)\n            (out_proj): Linear(in_features=1024, out_features=1024, bias=True)\n          )\n          (activation_fn): ReLU()\n          (self_attn_layer_norm): LayerNorm((1024,), eps=1e-05, elementwise_affine=True)\n          (fc1): Linear(in_features=1024, out_features=4096, bias=True)\n          (fc2): Linear(in_features=4096, out_features=1024, bias=True)\n          (final_layer_norm): LayerNorm((1024,), eps=1e-05, elementwise_affine=True)\n        )\n      )\n    )\n  )\n  (lm_head): Linear(in_features=512, out_features=50272, bias=False)\n)\n```", "```py\nprint(tokenizer.vocab_size)\n# 50265\n```", "```py\nfrom PIL import Image\nimport requests\nfrom transformers import AutoProcessor, AutoModelForCausalLM\n\nmodel_name = \"microsoft/git-base-coco\"\n\nmodel = AutoModelForCausalLM.from_pretrained(model_name)\nprocessor = AutoProcessor.from_pretrained(model_name)\n\n# Downloading and 
…
ocodataset.org/val2017/000000039769.jpg\"\nimage = Image.open(requests.get(url, stream=True).raw)\npixel_values = processor(images=image, return_tensors=\"pt\").pixel_values\n\n# Preprocessing text\nprompt = \"What is this?\"\ninputs = processor(\n            prompt,\n            image,\n            return_tensors=\"pt\",\n            max_length=64\n        )\n\nsample = model.generate(**inputs, max_length=64)\nprint(processor.tokenizer.decode(sample[0]))\n# two cats sleeping on a couch\n```", "```py\nGitForCausalLM(\n  (git): GitModel(\n    (embeddings): GitEmbeddings(\n      (word_embeddings): Embedding(30522, 768, padding_idx=0)\n      (position_embeddings): Embedding(1024, 768)\n      (LayerNorm): LayerNorm((768,), eps=1e-12, elementwise_affine=True)\n      (dropout): Dropout(p=0.1, inplace=False)\n    )\n    (image_encoder): GitVisionModel(\n      (vision_model): GitVisionTransformer(\n        ...\n      )\n    )\n    (encoder): GitEncoder(\n      (layer): ModuleList(\n        (0-5): 6 x GitLayer(\n          ...\n        )\n      )\n    )\n    (visual_projection): GitProjection(\n      (visual_projection): Sequential(\n        (0): Linear(in_features=768, out_features=768, bias=True)\n        (1): LayerNorm((768,), eps=1e-05, elementwise_affine=True)\n      )\n    )\n  )\n  (output): Linear(in_features=768, out_features=30522, bias=True)\n)\n```", "```py\nimport torch\n\ndef create_git_attention_mask(\n    tgt: torch.Tensor,\n    memory: torch.Tensor,\n) -> torch.Tensor:\n    num_tgt = tgt.shape[1]\n    num_memory = memory.shape[1]\n\n    # Areas where attention is applied are 0, areas without attention are -inf\n    top_left = torch.zeros((num_memory, num_memory))\n    top_right = t
…
      )\n```", "```py\nfrom transformers import AutoModelForCausalLM\nfrom peft import get_peft_config, get_peft_model, LoraConfig\n\nmodel = AutoModelForCausalLM.from_pretrained('microsoft/git-base')\n\npeft_config = LoraConfig(\n    task_type=\"CAUSAL_LM\",\n    r=8,\n    lora_alpha=32,\n    lora_dropout=0.1,\n    target_modules=[\"v_proj\"]\n)\n\npeft_model = get_peft_model(model, peft_config)\n```", "```py\ntarget_modules = [f\"model.image_encoder.vision_model.encoder.{i}.self_attn.v_proj\" for i in range(len(model.model.decoder))]\n```", "```py\n(self_attn): GitVisionAttention(\n  (k_proj): Linear(in_features=768, out_features=768, bias=True)\n  (v_proj): Linear(\n    in_features=768, out_features=768, bias=True\n    (lora_dropout): ModuleDict(\n      (default): Dropout(p=0.1, inplace=False)\n    )\n    (lora_A): ModuleDict(\n      (default): Linear(in_features=768, out_features=8, bias=False)\n    )\n    (lora_B): ModuleDict(\n      (default): Linear(in_features=8, out_features=768, bias=False)\n    )\n    (lora_embedding_A): ParameterDict()\n    (lora_embedding_B): ParameterDict()\n  )\n  (q_proj): Linear(in_features=768, out_features=768, bias=True)\n  (out_proj): Linear(in_features=768, out_features=768, bias=True)\n)\n```", "```py\nmodel = get_peft_model(model, peft_config)\nmodel.base_model.model.lm_head = model.lm_head\nmodel = model.base_model.model\n```", "```py\nclass SupervisedDataset(Dataset):\n    def __init__(\n        self,\n        vision_model_name: str,\n        model_name: str,\n        loaded_dataset: datasets.GeneratorBasedBuilder,\n        max_l
…
